…
tivation=\"relu\"),\n","  MaxPooling2D(),\n","  Conv2D(32,(5,5), padding='same', activation=\"relu\"),\n","  MaxPooling2D(),\n","  Flatten(),\n","  Dense(100, activation=\"relu\"),\n","  Dense(num_classes, activation=\"softmax\")\n","])\n","\n","model_cnn.summary()"],"execution_count":12,"outputs":[{"output_type":"stream","text":["Model: \"sequential_1\"\n","_________________________________________________________________\n","Layer (type)                 Output Shape              Param #   \n","=================================================================\n","conv2d (Conv2D)              (None, 32, 32, 64)        4864      \n","_________________________________________________________________\n","max_pooling2d (MaxPooling2D) (None, 16, 16, 64)        0         \n","_________________________________________________________________\n","conv2d_1 (Conv2D)            (None, 16, 16, 32)        51232     \n","_________________________________________________________________\n","max_pooling2d_1 (MaxPooling2 (None, 8, 8, 32)          0         \n","_________________________________________________________________\n","flatten_1 (Flatten)          (None, 2048)              0         \n","_________________________________________________________________\n","dense_3 (Dense)              (None, 100)               204900    \n","_________________________________________________________________\n","dense_4 (Dense)              (None, 10)                1010      \n","=================================================================\n","Total params: 262,006\n","Trainable params: 262,006\n","Non-trainable params: 0\n","_________________________________________________________________\n"],"name":"stdout"}]},{"cell_type":"markdown","metadata":{"colab_type":"text","id":"DNJmngIeolXm"},"source":["---\n","## Melatih Model"]},{"cell_type":"code","metadata"
…
Url":"https://lh5.googleusercontent.com/-x59cso3slZA/AAAAAAAAAAI/AAAAAAAAAAc/SK2WAOSPlbQ/s64/photo.jpg","userId":"10968586867277709725"}}},"source":["print('model ANN:')\n","model_ann.summary()\n","\n","print('\\n\\nmodel CNN:')\n","model_cnn.summary()"],"execution_count":15,"outputs":[{"output_type":"stream","text":["model ANN:\n","Model: \"sequential\"\n","_________________________________________________________________\n","Layer (type)                 Output Shape              Param #   \n","=================================================================\n","flatten (Flatten)            (None, 3072)              0         \n","_________________________________________________________________\n","dense (Dense)                (None, 500)               1536500   \n","_________________________________________________________________\n","dense_1 (Dense)              (None, 200)               100200    \n","_________________________________________________________________\n","dense_2 (Dense)              (None, 10)                2010      \n","=================================================================\n","Total params: 1,638,710\n","Trainable params: 1,638,710\n","Non-trainable params: 0\n","_________________________________________________________________\n","\n","\n","model CNN:\n","Model: \"sequential_1\"\n","_________________________________________________________________\n","Layer (type)                 Output Shape              Param #   \n","=================================================================\n","conv2d (Conv2D)              (None, 32, 32, 64)        4864      \n","_________________________________________________________________\n","max_pooling2d (MaxPooling2D) (None, 16, 16, 64)        0         \n","_________________________________________________________________\n","conv2d_1 (Conv2D)            (None, 16, 16, 32)        51232     \n","_________________________________________________________________\n","max_pooling2d_1 (MaxPooling2 (None, 8, 8, 32)          0         \n","_________________________________________________________________\n","flatten_1 (Flatten)          (None, 2048)              0         \n","_________________________________________________________________\n","dense_3 (Dense)              (None, 100)               204900    \n","_________________________________________________________________\n","dense_4 (Dense)              (None, 10)                1010      \n","=================================================================\n","Total params: 262,006\n","Trainable params: 262,006\n","Non-trainable params: 0\n","_________________________________________________________________\n"],"name":"stdout"}]},{"cell_type":"code","metadata":{"id":"cJph5BbhszSz","colab_type":"code","colab":{"base_uri":"https://localhost:8080/","height":52},"outputId":"41e
…
