…
init_ops.py:1251: calling VarianceScaling.__init__ (from tensorflow.python.ops.init_ops) with dtype is deprecated and will be removed in a future version.\n","Instructions for updating:\n","Call initializer instance with the dtype argument instead of passing it to the constructor\n"],"name":"stderr"},{"output_type":"stream","text":["Model: \"sequential\"\n","_________________________________________________________________\n","Layer (type)                 Output Shape              Param #   \n","=================================================================\n","conv2d (Conv2D)              (None, 32, 32, 64)        1792      \n","_________________________________________________________________\n","max_pooling2d (MaxPooling2D) (None, 16, 16, 64)        0         \n","_________________________________________________________________\n","conv2d_1 (Conv2D)            (None, 16, 16, 32)        18464     \n","_________________________________________________________________\n","max_pooling2d_1 (MaxPooling2 (None, 8, 8, 32)          0         \n","_________________________________________________________________\n","conv2d_2 (Conv2D)            (None, 8, 8, 32)          9248      \n","_________________________________________________________________\n","max_pooling2d_2 (MaxPooling2 (None, 4, 4, 32)          0         \n","_________________________________________________________________\n","flatten (Flatten)            (None, 512)               0         \n","_________________________________________________________________\n","dense (Dense)                (None, 100)               51300     \n","_________________________________________________________________\n","dense_1 (Dense)              (None, 10)                1010      \n","=================================================================\n","Total params: 81,814\n","Trainable params: 81,814\n","Non-trainable params: 0\n","_________________________________________________________________\n"],"name":"stdout"}]},{"cell_type":"markdown","metadata":{"colab_type":"text","id":"DNJmngIeolXm"},"source":["---\n","## Melatih Model"]},{"cell_type":"code","metadata":{
…
